runs/heart_segmentation/best_model.pth (torch, 173098 bytes, 35 tensors)

enc1.0.weight f4 [8, 1, 3, 3, 3]
00000000: 0751 823d a6ac 083e 3a54 c93c 92a7 253e
00000010: e9e2 133e 5784 f3bd f65f 67bd cc65 9c3d
00000020: 2040 c43d 78fd 2f3c 7603 82bd 4498 1d3e
00000030: 86db 4d3d cd15 e13d 2b86 963d a63e 483d
00000040: 1cc4 06be ce1c 5c3d 4c4d b73d 0a72 2e3e
00000050: a1cb 133e fd04 b53d a9d2 033e 6cae 5c3c
00000060: 71a9 5a3d 8b3b ef3c 4e9a 193e e8de e03d
00000070: 72e6 043e 4cc8 033e 4114 28be 253d 0dbe
00000080: d25f 673d 06ee 59bc 999f 1cbd 9600 47be
00000090: 9f83 49bd ff90 7f3c c527 53bd 3694 2b3e
000000a0: 1218 91bd 516f 51be 5d2a bbbd a124 a13d
000000b0: 6d80 60be 970f acbd c2c9 7dbd 9a79 003e
000000c0: 0960 083c 7f90 c43d 06b2 f83d 9fe3 91bd
000000d0: 80a4 36bd d65d 52be 9f60 9dbb 243c 9f3c
000000e0: 6f65 1bbe 494d e5bd 1473 a03d c42d e6bd
000000f0: b8c7 ff3b ae95 683d 8ecd 37bd 612b 153e
00000100: 5c63 3bbe bff8 ee3d 6eaa 863c de53 96bd
00000110: ecb9 163d 008f 973d 9046 913d a262 c2bb
00000120: ffb6 bfbd d3e8 81bd 9f8e 68bd f4b9 2cbe
00000130: ce26 9bbb 057d cc3d 53c2 65bd f96a 303e
00000140: 816e 10be 50c3 86bc d04b cc3d ecd0 a2bc
00000150: e4fc 163e c899 ccbb d69b 31be 8e18 243e
00000160: d813 02be 4d6e b4bd a6b9 4f3c 2abf fabc
00000170: 336d 16be 7fbd d23d 9dba 2abd 1136 4abe
00000180: 946b 053d 482f e1bd 0839 b9bc d0f4 1ebe
00000190: 59bf 13be 77c9 f03c b634 a6bd e648 86bd
000001a0: ac89 cb3d 4e00 2b3e 26cb 53bc d455 53be
000001b0: 7606 f5bd 3c2f 863d 6bfc 3dbd 89d2 4d3a
000001c0: e847 dfbc 4c7a f1bc f704 9c3b 2f3c 9e3d
000001d0: 3f43 20be e496 15be 4da2 b8bd e22d 01bc
000001e0: a719 cebd 15ce ab3d 5e66 1abc ec20 00bd
000001f0: 8997 28be 7846 023e eb32 ef3d 430b da3a
00000200: 1343 16be 83fc 83bd 22cb 34be 10ab e83d
00000210: b94e a3bd f846 08be f521 36be bd53 b83d
00000220: 7a61 42be 26b1 5e3d c152 b9bd 7e7f 4cbe
00000230: 3ec2 943d 17f6 303e 6e2a c53d d33d bebd
00000240: 7ed5 10be b27d d8bc 1d72 03be fda7 7e3d
00000250: f3d3 b7bb 0cb4 163d 3a75 fe3c bbe6 c23d
00000260: cc8c 18be 91d1 30be ec1e 15be ca0e 0a3e
00000270: 32f5 fabd a4db 16be ed27 59bd 02f5 e23d
00000280: 9b1a 3dbd ab97 d93d 7557 933d 0886 583d
00000290: 0658 973d af08 8b3d cb55 0dbe 8f02 18bd
000002a0: 42f2 fe3c 9f14 0abe 5e1d fd3d 8ed7 a0bc
000002b0: 354b 3dbb 2e2f 20bc b109 18be 84fb afbd
000002c0: 076f 193d d434 083e a076 10be 052b 083e
000002d0: 49d1 0a3e 3f05 0a3e f79e 083c 2c0f a93d
000002e0: 8d8c 543e ced8 d63d 03e0 0a3e 2cca aabd
000002f0: 74f6 b0bc 89bc f43d 8abf 12be fae2 42bd
00000300: 42c3 353d 1835 603d d86c b8bd 1351 e33d
00000310: e5c9 4a3e 8099 2fbe d8e2 bc3d 9acf 92bc
00000320: 6adf 8cbd 329b e93d 58bb 443e 51c3 1c3e
00000330: 7c67 b73b a188 72bd 98d9 133d 4937 c6bd
00000340: f2b9 1f3d a2ab 283e a02a 82bd 6071 29bd
00000350: 1854 87bc 4964 38bd 4042 933d e7b8 21be
0.06363111 0.1334711 0.024576295 0.16177204 0.14442028 -0.11890476 -0.056488 0.07636604
0.095825434 0.010741584 -0.06348316 0.15390116 0.050258182 0.10990486 0.07349809 0.04888787
-0.13160747 0.053738408 0.0895029 0.1703569 0.14433147 0.08838842 0.12873329 0.01346932
0.05338425 0.029203197 0.15000269 0.10980016 0.12978533 0.12869376 -0.16413976 -0.13792856
0.056487866 -0.013301378 -0.03823814 -0.19433817 -0.04919779 0.015598535 -0.0515516 0.16755757
-0.07084669 -0.2045262 -0.091389395 0.078683145 -0.2192399 -0.08401411 -0.06195999 0.12546387
0.008323678 0.09597873 0.1214333 -0.071234934 -0.044590473 -0.20543608 -0.004802778 0.019437857
-0.15175413 -0.111963816 0.078344494 -0.11239198 0.0078057908 0.05678337 -0.044873767 0.14567329
-0.18299621 0.11668538 0.01643869 -0.07340215 0.036798403 0.07400322 0.07093537 -0.005932168
-0.093610756 -0.06343236 -0.05677664 -0.1686781 -0.0047348505 0.09984783 -0.056093525 0.17228307
-0.14104654 -0.016450554 0.099753976 -0.019875012 0.14744908 -0.006243918 -0.17344603 0.16024992
-0.12702882 -0.08810101 0.012678539 -0.030608732 -0.14690094 0.1029005 -0.041681875 -0.19747187
0.032573298 -0.10995346 -0.022610202 -0.15523076 -0.14428462 0.02939294 -0.081155226 -0.06556873
0.09938368 0.16699335 -0.012926852 -0.2063821 -0.11964123 0.06551978 -0.046383303 0.00078515016
-0.027255967 -0.029477261 0.004761334 0.07726323 -0.15650652 -0.14608341 -0.090153314 -0.0078844745
-0.100634865 0.083889164 -0.00942382 -0.031281397 -0.16464056 0.12722194 0.11679634 0.0016635436
-0.14674024 -0.06444647 -0.17655614 0.113607526 -0.079739995 -0.13308322 -0.17786391 0.09000347
-0.18982497 0.05436816 -0.09048987 -0.1997051 0.07263611 0.17281376 0.096272334 -0.09289136
-0.14143941 -0.026427124 -0.128365 0.062171925 -0.005609983 0.0367928 0.031061757 0.095166646
-0.1489746 -0.17267443 -0.14562577 0.13482204 -0.122537985 -0.14732224 -0.05301659 0.11081888
-0.04616795 0.106246315 0.071944155 0.052862197 0.07389836 0.06788766 -0.13802259 -0.037111815
0.031121377 -0.13484429 0.12359117 -0.019634034 -0.0028883938 -0.0097768735 -0.14847447 -0.08592895
0.0374594 0.13301402 -0.14107752 0.1329766 0.13556398 0.13478564 0.008338681 0.08254847
0.20756741 0.10490571 0.13562016 -0.083393425 -0.021601893 0.11950023 -0.14330879 -0.047579743
0.044375665 0.054738134 -0.09005135 0.11099448 0.19803579 -0.171484 0.092229545 -0.017921258
-0.0687855 0.11406554 0.19212091 0.15308882 0.005597053 -0.05921233 0.036096185 -0.096785136
0.03899569 0.16471723 -0.06355786 -0.04136789 -0.016519591 -0.045017514 0.071903706 -0.15793191

enc1.0.bias f4 [8]
00000000: e248 10be e6f0 e5bd fd8f b03d 0f84 14be
00000010: 5567 8d3d 7bcc 863d 2ed2 193e dd29 b63c
-0.14090303 -0.11227588 0.086212136 -0.14503501 0.06904475 0.0658197 0.15021583 0.022236759

enc1.1.weight f4 [8]
00000000: c46b 7f3f db60 813f bc20 7c3f 3d0b 813f
00000010: 410c 843f afd2 803f 87bc 763f 8f2b 723f
0.9977381 1.0107683 0.9848745 1.0081555 1.031624 1.0064296 0.9638142 0.94597715

enc1.1.bias f4 [8]
00000000: 4264 12bd 490a 6e3d f213 d93c b778 1b3d
00000010: 9e27 fe3c fd21 cb3c 39e0 5abd a6c4 49bd
-0.035740145 0.058115277 0.026498768 0.03795692 0.03102475 0.02479648 -0.05343649 -0.049259804

enc1.1.running_mean f4 [8]
00000000: f6d2 01be 5f10 f4bd 226e a43d bea2 1cbe
00000010: 9174 753d c3ce 833d 209f 243e 27a1 a63c
-0.12678131 -0.11917185 0.08028819 -0.15296456 0.05992562 0.06435921 0.16076326 0.020340515

enc1.1.running_var f4 [8]
00000000: bc84 1b40 bc27 d73e 01f8 0b3e 3c99 233f
00000010: 89fa 893f e35f d43e 20a2 e03e 5f96 2a3e
2.4299765 0.42022502 0.13668825 0.6390569 1.0779582 0.41479406 0.43873692 0.16658925

enc2.0.weight f4 [16, 8, 3, 3, 3]
00000000: f4ff 7cbd aac2 303d 4c8a b4bc 3167 3b3d
00000010: 16ca 593d 3127 d6bb c6f5 d5b8 8bfd c03c
00000020: 2c50 80bd 4425 76bd 4519 e23c fb54 753d
00000030: b505 9f3c e8ce f83c 2929 19bd fc3d 8d3d
00000040: b591 413b 5fc1 6b3c 3075 56bd 0820 0abc
00000050: f7bf 48bd 9662 8a3b 4aed 473d 9462 893d
00000060: d0b8 29bc 80ad 463d a184 853c 2ef1 073c
00000070: 6005 99bc af53 48bd 359e 513b 01d1 8bbd
00000080: 7316 37bd cc62 0b3d 9675 3bbc ee2d aebc
00000090: 2edf e3bc cefc 73bc b8a3 903d e059 2fbd
000000a0: ae6e b1bc 389b febc 2e63 3fbc dc1a 67bd
000000b0: bef3 433d bb5b 94bc c441 373d 8d48 92bd
000000c0: 88f6 f3bc 75b1 80bd 2b71 f13c 08ce 5cbd
000000d0: b65d c2bc d73c 9ebc f8c0 70bd 8d86 88bd
000000e0: 8623 b5bc 7d71 bebc 9650 0d3c 4356 9cbd
000000f0: 6f19 b13c 27cc c3bc dac9 d6bc f9e7 703d
00000100: 26b7 3bbd ce6f 403b 8a12 80bd 648f 0f3d
00000110: 298d a23c ccce 133d f3aa a9bc f44c 063c
00000120: c552 823b cb86 84bc 5b06 1dbc 6ca4 103d
00000130: 74ba ebbc 8893 243d 7d8c 09bd cbcf 4dbd
00000140: 1b61 083d 0ef6 573c 4fa3 063d 3885 5cbd
00000150: 54f9 573d 712c a8bc f7fe 65bc fd38 97bc
00000160: eccf 4cbd aad8 ffbc f975 6d3d 15a0 7dbc
00000170: 4849 4f3d c551 06bc c1f8 103d 6434 9dbd
00000180: 6df8 573d dce5 0bbd 7f27 213c af1a 4bbc
00000190: faa3 a53c cf36 babc 399b cbbc e4fd 3dbb
000001a0: d633 44bd 2c0c 33bc 0c8d 4e3d da62 a33b
000001b0: 92f6 ac3c 9868 3a3c b927 2bbd afdb b4bc
000001c0: ef62 abbb ff1c 89bc 2f5e f2bc 041d c33c
000001d0: 3930 3ebd b08b 0ebd a7db 493c 2970 e33c
000001e0: 7a33 463c 094a 32bc f67d bebb ca16 96bc
000001f0: 7e88 dd3c b3c9 a7bc 7d84 ef3c c303 30b8
00000200: 24b4 68bd 936d 3b3c 831d 4f3d 3591 343d
00000210: f4d4 0f3d 271d d73c 7fbf 013b ed24 d53c
00000220: f3db b9bb 2783 cc3b bc29 b8bc e449 00bc
00000230: f0ce b63b 5da9 81bd 20a9 113d 1546 883c
00000240: c38e 3f3d e733 65bd 47b4 ba3c ad56 eb3c
00000250: eb66 08bd 17c1 6cbd aeb1 d9bb d5c9 04bd
00000260: 885b 5bbd b406 7e3d 649f c1bd 914e a2bd
00000270: ab73 e9bb c12b c0bc 5990 48bc 07e0 41bd
00000280: 4250 d5bc b00e 86bc 8a98 733d a9ae 91bd
00000290: 1184 803d 21cf 6dbd 4043 b13c 0351 8d3c
000002a0: 057a 34bd f276 193c b236 473d 6959 3cbd
000002b0: 361a 1c3d 0437 c1bc 324a 5dbc 62fe 313d
000002c0: 6573 1dba dc67 52bd 8d74 febc 6d07 eebc
000002d0: 638a 80bd 7cb8 0cbd 053e 56bd c87f 34bd
000002e0: b088 883c 4976 8d3d bd8d 13bd def6 6e3d
000002f0: 82e9 b23c 17dd 86bd 8ac8 dd3c b523 24bd
00000300: 47a1 bdbb 02fd 613d 8365 933c d4c7 83bd
00000310: 9a45 0bbd c5fb 863d 64b7 7dbd d237 21bd
00000320: edd7 5b3c 0b57 633d c1a8 c1bc 2769 b83b
00000330: 1eaa 2e3d 0a83 113d 765b 2d3d a178 3e3d
00000340: 80d8 1ebc 3575 20bc f6ef 863d 3ef6 dc3b
00000350: 41cb f3bc 7e14 9cbc 0967 583c 9bc3 32bd
00000360: 571a 28bd 4c2d b3bc 3fc8 1abd 3cab 05bd
00000370: a34a 0b3d 1b29 26bb b2f0 4c3c 2afd 293a
00000380: 0e12 b8bc dfb4 743d 81f8 a83c ad2a 8cbd
00000390: 862f d43c 40a4 3cbd 9d47 b7bb 9148 68bd
000003a0: 8720 7f3d 7b8d 62bd 2e37 753c 69ac efbc
000003b0: b763 353d 5b5a db3b 21f4 7a3b e971 3a3b
000003c0: fdd2 ae3c 3b32 1ebd 550b 1ebd 0e15 abbd
000003d0: a382 b7bd fe86 813c 05f9 9abd a832 5fbd
000003e0: 54a8 583d 475c 66bd 985c b33b 85da 673c
000003f0: 1b31 98bd 4019 4b3c e3e3 473c 9334 82bc
-0.061767533 0.043154396 -0.022038601 0.045752708 0.05317124 -0.0065354337 -0.0001020241 0.023558399
-0.062652916 -0.060094133 0.02759994 0.059895497 0.019411901 0.030372098 -0.03739277 0.06896588
0.002953631 0.014389365 -0.052357852 -0.008430488 -0.049011197 0.004223178 0.04881028 0.067082554
-0.010359004 0.048505306 0.016298594 0.008297248 -0.01867932 -0.048907932 0.0031985168 -0.06826974
-0.044699144 0.034029767 -0.011441609 -0.021262135 -0.027816381 -0.014891816 0.07062477 -0.04281032
-0.021659222 -0.031079873 -0.011681361 -0.0564221 0.047839873 -0.018110147 0.044740453 -0.07142744
-0.029780641 -0.06283847 0.029472908 -0.053907424 -0.023726325 -0.01931612 -0.05877778 -0.066662885
-0.022111665 -0.023247475 0.00862517 -0.076336406 0.021618573 -0.023901058 -0.026219297 0.058814976
-0.04582896 0.0029363516 -0.06253536 0.035048857 0.019842701 0.03608589 -0.020711398 0.008197058
0.003977152 -0.016177556 -0.009584035 0.035313055 -0.028775431 0.04017976 -0.033581246 -0.050246995
0.033295732 0.013181223 0.032870587 -0.053837985 0.052728012 -0.020529004 -0.014037839 -0.018459791
-0.050002977 -0.031231243 0.057973836 -0.015480061 0.050606996 -0.008198206 0.03539348 -0.07676008
0.05272715 -0.034154758 0.009836077 -0.012396499 0.020219792 -0.022731213 -0.02485429 -0.0028990442
-0.047900997 -0.010928195 0.05042748 0.0049861493 0.021113668 0.011377476 -0.04178593 -0.02207741
-0.0052302997 -0.01673746 -0.029585926 0.023817547 -0.046432707 -0.034801185 0.012320436 0.027763443
0.012097234 -0.010881909 -0.0058133556 -0.018321414 0.027042624 -0.02048192 0.02923798 -4.1965173e-05
-0.05681242 0.011439699 0.050565254 0.044083793 0.035115197 0.026259018 0.0019797978 0.026018584
-0.005671972 0.0062412205 -0.022480838 -0.007830117 0.005578868 -0.063311316 0.03556168 0.01663498
0.046767008 -0.0559577 0.022791041 0.028727854 -0.033301275 -0.057801332 -0.0066434955 -0.032419045
-0.053554088 0.06201811 -0.094542295 -0.079251416 -0.0071243844 -0.023458363 -0.012241446 -0.04733279
-0.026039246 -0.016364425 0.059471644 -0.07113392 0.0627519 -0.05805886 0.021638513 0.017250543
-0.04406168 0.009366738 0.048636146 -0.045983706 0.038110934 -0.023585804 -0.013506459 0.04345549
-0.000600627 -0.05136858 -0.031061435 -0.029056275 -0.06276395 -0.034355626 -0.05230524 -0.044067174
0.01666674 0.06907327 -0.036023844 0.0583409 0.02183986 -0.06585138 0.027073164 -0.040073115
-0.005787048 0.055172928 0.01799274 -0.064345986 -0.034001924 0.0659099 -0.061942473 -0.039359875
0.01341818 0.055502933 -0.023640038 0.0056277695 0.042642705 0.03552536 0.042323552 0.04650176
-0.009695172 -0.009793569 0.06588738 0.0067432215 -0.029760005 -0.01905274 0.013208159 -0.043643575
-0.041040745 -0.021872185 -0.037788626 -0.032634005 0.034006726 -0.002535409 0.012508558 0.0006484563
-0.022469547 0.059742805 0.020626308 -0.06844077 0.025901567 -0.04605508 -0.0055932538 -0.05670983
0.06228688 -0.055310708 0.014966769 -0.029257016 0.04428455 0.006694121 0.0038292485 0.0028449243
0.021340841 -0.038622122 -0.038585026 -0.08353625 -0.08960464 0.01581144 -0.07567028 -0.05449167
0.052894905 -0.056240346 0.0054736845 0.01415122 -0.07431241 0.012396157 0.0122003285 -0.01589421

enc2.0.bias f4 [16]
00000000: c6f6 203d 244e 1f3c 16a7 7bbd 71f2 2b3c
00000010: 0078 cebc 1475 313d 244c 8abd be12 173c
00000020: c109 b6bc a7ab 4e3c c3f4 483a 09cd 5e3d
00000030: fe46 4d3d bff0 893d ea07 c43c c278 07bc
0.03929784 0.00972322 -0.061438642 0.010494814 -0.025203705 0.043324545 -0.06752804 0.009220777
-0.022221448 0.012614167 0.0007665867 0.054394756 0.05011653 0.06735372 0.023929555 -0.008268537

enc2.1.weight f4 [16]
00000000: f0d7 7f3f 11cb 783f 4488 7b3f cb95 7b3f
00000010: 0c5c 7e3f a43f 7e3f 7318 7a3f 59f7 7e3f
00000020: 432b 7f3f c335 7d3f 80ad 7f3f 505a 7f3f
00000030: 92d0 7d3f be1a 7a3f 9a37 803f 1a68 7d3f
0.9993887 0.97184855 0.982548 0.9827544 0.993592 0.9931586 0.97693557 0.9959617
0.9967539 0.9891016 0.99874115 0.9974718 0.9914638 0.97697055 1.0016968 0.9898697

enc2.1.bias f4 [16]
00000000: 18fc 9ebc fe1b 44bd bd01 aabd b454 70bd
00000010: 3e46 34bd c043 59bd 7da3 0bbd 868b 06bd
00000020: e838 f23c cf74 d0bc e6d6 1fbd 8ee9 cdbc
00000030: 5f07 99bc fecb 0cbc 18ff f2bc 462e d0bc
-0.019407317 -0.047878258 -0.08301113 -0.05867453 -0.0440123 -0.053043127 -0.03409146 -0.032847904
0.02956815 -0.025446324 -0.039023302 -0.025135782 -0.018680273 -0.008593557 -0.029662654 -0.02541269

enc2.1.running_mean f4 [16]
00000000: 7046 ddbe 8953 8dbe 70dc 46be c1c3 983e
00000010: 1cc3 523e 5e04 a63d 1077 f8be 79bc a4be
00000020: 1825 19bf 5480 9d3d 3523 f73e 65ab ba3e
00000030: 8b98 dfbe 0b20 8ebf 22ad e6bd 26a7 b3be
-0.43217802 -0.27602795 -0.19420028 0.29836848 0.20582241 0.08106302 -0.48528337 -0.32175043
-0.59822226 0.07690492 0.48269048 0.3645889 -0.4367107 -1.1103529 -0.11263491 -0.35088462

enc2.1.running_var f4 [16]
00000000: b400 3a3e b9ee bc3d 1dd5 f03d 1a17 013e
00000010: a27b 073e 5552 383d 8206 483d 0688 af3e
00000020: a30c 373e e684 263e d26b 0c3e bbc7 c63e
00000030: a9cc bf3d 853a 273e c93a 2c3e 87fc 9d3d
0.1816433 0.0922522 0.11759398 0.12606469 0.13230756 0.045000393 0.04883433 0.34283465
0.17875914 0.16261634 0.13713005 0.38824257 0.09365208 0.16330917 0.168193 0.077141814

bridge.0.weight f4 [32, 16, 3, 3, 3]
00000000: ed13 023c 603e f93b 50f3 813c 8bcf 293d
00000010: 0ec7 903c 6e08 e7bc 63e2 02bd 7831 3fbb
00000020: 316b cdbc 651b 5f3d 37f6 2c3d 7eb8 a0bc
00000030: 8cad efbc 5d16 9a3b fd42 4dbc fde0 703c
00000040: 4fdf 133d e2a8 623d 6b1e 8a3c 71bd b4bc
00000050: 762a 133d b281 333d 87ea 0a3d 15ce ae3c
00000060: ab9c 263d 2cb9 53bd e49c 353d e122 02bd
00000070: a65d ffbc d13b f2bc ac21 89bc 859b 7ebc
00000080: 0e0a 233d 71c5 8f3c 2f97 4b3c 4a84 443d
00000090: dddd 74bc 5d68 79bc 85dc 4c3d fc76 57ba
000000a0: 65b9 53bc faca debc 393a 1abd 2f38 e5bc
000000b0: d27f debb 5d3a 153d 0100 e1bc e426 463d
000000c0: ec2a 0c3d 3bbc 103d b07b b83c d03f df3c
000000d0: 85cf 083d 7149 9abc 5c87 0e3d 5c63 b9bc
000000e0: cb11 d03c 41ee dcbc 07f1 803c 1a7c d5bc
000000f0: 5a00 41bd e1ab 973b ebce 313c c295 233d
00000100: 9fd6 1eba 75ea 833d 1fc2 113d a8fb 4d3b
00000110: 437d 2d3c fa92 eebc 42be b7bc 33c0 c73c
00000120: b679 693c 9bec 623c 6f66 18bd 4f4f 013d
00000130: 1e41 50bd 562c 003d 5f53 f13c c7aa 25bd
00000140: 5b55 ff3b 6ff9 4ebd b0a8 52bd 85b5 ddbc
00000150: e5cc 7cbc 7864 1bbb e645 1f3c e033 033c
00000160: 459b 463d aeb2 5b3c 9fa6 eebc 6357 993c
00000170: 05ac 6abb 51de 3c3c d468 1f3d b496 333d
00000180: e107 7fbc 4f7a 963c 10d4 35bb 0932 3ebd
00000190: b8e9 5e3c 931b 0cbc 85fe 883c 380e 00bd
000001a0: cb0b fabc e1d4 15bc bbd8 c83b 7d50 1dbd
000001b0: bf8b 35bc e142 4d3d 0330 52bc 4d49 763c
000001c0: ad68 6c3c 3cb6 08bb 6193 563c a240 093d
000001d0: a87b efbc bf2b 3e3d 8ce8 17bd f5e5 53bb
000001e0: 109f 683c 80b2 bf3b 0ded 163c 3d15 503d
000001f0: 5eb0 7a3d 29fb c1bc 9850 e63c f53e 123d
00000200: 646a e2bb 4440 07bd efeb a6bc 15ad 0a3d
00000210: a50c 61bc 5e29 8e3b 2671 f33c 2686 cdbc
00000220: c11e e3bc cd26 5f3b 6417 1d3c 6054 cb3b
00000230: a52c 19bd 7c39 48bd 839a 8ebc 656d 5e3c
00000240: 040c 8cbc 543a f43a d3e8 9abc f64e 41bd
00000250: 4516 7ebc f235 3cbd f93b b93c 8364 173d
00000260: 521f 7bbc 7247 f8bc b700 823c 8747 0ebd
00000270: f2b2 af3c ee71 c43c 3e98 d23c 9cf5 003c
00000280: dce0 083c 7dd8 7ebb e74c 3ebd 752b 153d
00000290: f9e5 6d3d 31a6 533d fb43 f4bb d1c0 40bc
000002a0: 9d5d 393d 69e9 e63c bd5b 8dbc 50b1 20bc
000002b0: 74b4 833b 5f2e dcbc 2460 3c3d 82dd 1ebc
000002c0: c18e 263d 991f 043d 8b84 c73c 980f 32bd
000002d0: 6757 0dbd 6463 893c 8485 9dbc 369c 193c
000002e0: fab4 23bd 0ecf cdbc f80d 0ebc 5965 3ebd
000002f0: ced5 93bc 25dd 753c 8693 16bb 9087 343d
00000300: 9db0 3abd 1b76 b0bc 29da 033d 5684 eb3c
00000310: dffe f13b a532 faba 0af0 d8bc 30bd 973b
00000320: c43c 423d d1c6 04bd c6e0 063c 7005 8b3c
00000330: 1880 993c 53c3 f93c 45a1 713c 0137 6dbc
00000340: bc47 43ba 71fa a3bc 5d9d 3dbd 5b8a ac3c
00000350: eb57 93bc 4580 05bc bbf9 57bd 2f53 e23c
00000360: 1977 b2bb b7d7 c33b a4a4 1fbd 1f90 cabc
00000370: bea9 b2bb 774a f1bc f427 cd3c 738b 1bbd
00000380: f483 e93b b9ea 48bd 925f 23bd 73b7 d2bc
00000390: 7d03 32bd 40ab f43c 79cc 0c3c c16b 8d3a
000003a0: 8a63 e7bc 076b 8dbb 0297 2f3c b435 58bd
000003b0: 5e29 913b 4d26 183d d8de 373d b5a4 41bc
000003c0: a558 6fbc 4f78 2d3b a6e3 01bd 393c 42bd
000003d0: 1a9e 963c 95fe 793c f5b6 03bd c13c 0c3d
000003e0: 7578 1d3d de5b 31bc 558a 9bbc 7465 aabc
000003f0: 51ec adbc 34a6 d1bc 3857 f1bc f057 04bc
0.007939321 0.0076063126 0.01586309 0.041457694 0.017673042 -0.028202262 -0.03195418 -0.0029173773
-0.025075527 0.054469485 0.042226996 -0.019619223 -0.029257558 0.004702373 -0.012528178 0.014702079
0.036101636 0.05533684 0.016860208 -0.022062989 0.035929166 0.04382486 0.03391507 0.021338502
0.040676754 -0.051690266 0.044339076 -0.031771544 -0.031172585 -0.029569538 -0.016739689 -0.015540008
0.03980451 0.017550202 0.012426182 0.047977723 -0.014945474 -0.015222636 0.05001499 -0.0008219329
-0.0129226195 -0.027196396 -0.03765318 -0.027980892 -0.0067901397 0.036432613 -0.027465822 0.048376933
0.03422062 0.03533576 0.022519916 0.027252108 0.03340103 -0.018833848 0.034797058 -0.022630386
0.02539911 -0.026969077 0.01573993 -0.026060153 -0.047119476 0.004628644 0.010852556 0.039937742
-0.0006059203 0.064412035 0.03558552 0.0031430516 0.010588947 -0.029122818 -0.02242959 0.02438364
0.01425021 0.013850356 -0.037207063 0.031569775 -0.05084335 0.031292282 0.0294587 -0.04044607
0.0077921576 -0.050530847 -0.051430404 -0.027064094 -0.01542971 -0.0023711007 0.009721255 0.008007973
0.04848792 0.0134093 -0.029132186 0.018718427 -0.0035808098 0.011527614 0.03891833 0.043844894
-0.015565843 0.018368868 -0.0027744807 -0.046434436 0.013605528 -0.008551496 0.016722927 -0.03126356
-0.030523201 -0.009144993 0.006129352 -0.038406838 -0.011080681 0.05011261 -0.01282883 0.015032125
0.0144292535 -0.0020860573 0.013096661 0.033508904 -0.029233769 0.04642844 -0.03708701 -0.003233311
0.01419808 0.0058501363 0.009211791 0.050801504 0.061203353 -0.023679333 0.028114602 0.03570457
-0.0069096554 -0.033020273 -0.020376174 0.03385647 -0.013735925 0.0043384274 0.02971704 -0.025088381
-0.027724626 0.0034050227 0.009588096 0.0062051266 -0.037396092 -0.048882946 -0.017407661 0.013575886
-0.017095573 0.0018633106 -0.018909847 -0.047194444 -0.015508239 -0.045949884 0.022611605 0.03696109
-0.015327292 -0.030307505 0.015869481 -0.034736183 0.021447632 0.023980107 0.02570736 0.007871058
0.008354392 -0.0038886361 -0.04646006 0.036418397 0.058080647 0.051672164 -0.007454393 -0.011764721
0.045255292 0.02818747 -0.017255658 -0.0098079 0.0040193144 -0.02687758 0.045990124 -0.009696366
0.040663484 0.032256696 0.024355194 -0.043471903 -0.03450718 0.016771026 -0.019228704 0.0093756225
-0.039967515 -0.025123145 -0.008670323 -0.04648337 -0.018046286 0.015006338 -0.0022976114 0.044074595
-0.045578588 -0.021540692 0.032190476 0.028749626 0.0073851193 -0.001908858 -0.026481647 0.004630707
0.047421232 -0.03241617 0.008232301 0.016970366 0.018737838 0.030488646 0.014747922 -0.014478446
-0.0007449349 -0.02001688 -0.04629265 0.021062067 -0.017986258 -0.008148258 -0.052728396 0.027627556
-0.0054463265 0.005976643 -0.038975373 -0.024726925 -0.0054523638 -0.029454453 0.025043465 -0.037974786
0.0071263257 -0.049051974 -0.039886065 -0.025722241 -0.043460358 0.029866815 0.008593672 0.001078956
-0.028245706 -0.004315737 0.010717155 -0.05278559 0.00442998 0.0371459 0.044890255 -0.011819054
-0.014608537 0.0026469415 -0.031711243 -0.047420714 0.018385936 0.015258451 -0.032156903 0.034237627
0.038444955 -0.0108251255 -0.01898686 -0.02080033 -0.021230849 -0.025591947 -0.029460534 -0.008077607

bridge.0.bias f4 [32]
00000000: d4b1 fb3c afa9 713c 0613 95bc 6cbb 953c
00000010: 771a 9dbc a61f 6a3c 9273 133b 74e2 db3c
00000020: ff41 353d 443b 18bd 3271 263c 6d5d 00bd
00000030: 0304 0dbc 1b04 153d 33c7 8fbb 7589 023c
00000040: fcec 903c 3b4e f3bc 9437 c93c 6802 97bb
00000050: 5939 13bd ec6b d5bc 32c3 4fba 3ae4 c2bc
00000060: aa1a dbbc 9c64 28bc 86cc 68bb fa9a a0bc
00000070: a52e 0cbd 162d 3ebd 3408 56bc 30e3 32bd
0.030724443 0.014749928 -0.018197548 0.018277846 -0.019177658 0.014289772 0.0022499305 0.02684138
0.044252392 -0.037165895 0.010158824 -0.031339098 -0.0086069135 0.03638087 -0.00438776 0.007967343
0.017691128 -0.02970039 0.024562635 -0.004608441 -0.035943363 -0.026052438 -0.00079255097 -0.023790468
-0.026746113 -0.010277893 -0.0035522296 -0.019605149 -0.03422417 -0.046429716 -0.013063479 -0.043673694

bridge.1.weight f4 [32]
00000000: 5b6b 813f be3b 823f 6a79 823f 5129 813f
00000010: 2292 803f c95a 803f 7416 813f 9823 833f
00000020: 25c7 813f b603 813f 3d04 813f b030 803f
00000030: 38f5 823f 6d5b 823f 45d8 7f3f 5288 813f
00000040: 6be6 803f b788 813f 75d7 803f 7540 813f
00000050: f27f 833f abc1 803f 207f 813f 49cc 823f
00000060: 6ea5 813f 08b8 803f d592 803f 890a 813f
00000070: 028d 823f bc20 823f fdd7 7c3f cf87 823f
1.0110887 1.0174482 1.0193303 1.0090734 1.0044596 1.0027705 1.0084977 1.0245237
1.0138899 1.0079257 1.0079418 1.0014858 1.0231085 1.0184151 0.99939376 1.0119727
1.0070318 1.0119847 1.0065752 1.0097796 1.0273421 1.0059103 1.011692 1.0218593
1.012861 1.0056162 1.004481 1.008134 1.0199282 1.016624 0.9876707 1.0197695

bridge.1.bias f4 [32]
00000000: 0be2 eabc d069 dcbc 81ef bdbc 7e52 6dbd
00000010: 59b6 50bd 97bc cfbc bbca 2ebd 7419 9fbc
00000020: eb17 11bd 0980 96bd 60c1 8abd 28ba 623c
00000030: 7460 5ebd 5c3e 0ebd 42d6 14bd 087b 79bd
00000040: f96a 893c 6e52 aebd 6074 24bd d6b1 adbc
00000050: 5260 8f3b 1e20 a6bd aec6 87bd 556e d3bc
00000060: be94 4abd d12a 82bd 24db 68bd b9e4 99bd
00000070: 92eb 2139 9b12 71bd 6b1e 02bb 32fc 1fbd
-0.028672239 -0.026905924 -0.023185493 -0.05794 -0.05095515 -0.025358481 -0.042673808 -0.019421317
-0.0354232 -0.073486395 -0.067751646 0.013838328 -0.054291204 -0.03472744 -0.036337145 -0.060908347
0.016774641 -0.08511816 -0.040150046 -0.021202963 0.004375496 -0.081115946 -0.06629692 -0.025809446
-0.049458258 -0.06355823 -0.056849614 -0.075143285 0.00015441913 -0.058855634 -0.0019854556 -0.03905887

bridge.1.running_mean f4 [32]
00000000: dce5 0c3e bc40 093e 77aa 1cbf 70fc 083e
00000010: 44b2 a1bd 731e 0abd 4514 2f3d 77d1 733e
00000020: 217c cfbb e172 3abd 3a30 f03d 8498 aebd
00000030: 40ba acbd a324 ad3d 1b38 2dbf 67f0 0fbc
00000040: 25ce 8cbf e5fd f43b 0004 823e 5c35 80bd
00000050: 56c7 65bf 5c0c f83c 5174 1dbc c734 04be
00000060: d6bb 13be 3542 493e df6a 033e 54a6 0dbd
00000070: 559d f9bc d1c0 0ebe 64da d03b f9f7 ddbc
0.1375956 0.134036 -0.6119761 0.13377547 -0.078953296 -0.033720445 0.04274394 0.23810373
-0.006331936 -0.045519713 0.117279485 -0.08525184 -0.08433962 0.084542535 -0.67663735 -0.008785344
-1.100041 0.0074765556 0.25393677 -0.062601775 -0.8975729 0.03027933 -0.0096102515 -0.12910758
-0.14427122 0.19654162 0.12833737 -0.03458245 -0.03047053 -0.13940741 0.0063736904 -0.027095782

bridge.1.running_var f4 [32]
00000000: e36f 1f3e f78d 2f3e ae6b a63e 60df 9d3e
00000010: 975b 4b3e 5216 b53e 3f8b 403e 0358 063e
00000020: 2521 623e ceeb fb3d 7298 723e 04e0 d83d
00000030: 74b9 113e 62e2 e73d 23fd a83e 924b 313e
00000040: e86d de3f 2e95 213e 104a 933e 9253 9c3e
00000050: 499f ac3f d535 093e 8c1c 843e 1910 3e3e
00000060: 6368 5a3e 15ca c03e 7a96 523e 3a79 023e
00000070: 28b4 003e 3326 783e 4e2b 803e d4f5 293e
0.15570025 0.17143999 0.32504028 0.30834484 0.19859158 0.35368592 0.18803118 0.13119511
0.22082956 0.123008355 0.23690966 0.105896026 0.14230901 0.11322476 0.33005628 0.17313984
1.7377291 0.15779564 0.28767443 0.3053251 1.348611 0.13399442 0.2580303 0.18560828
0.21328883 0.37654176 0.20565215 0.12741557 0.12568724 0.24233322 0.2503304 0.16597682

up2.weight f4 [32, 16, 2, 2, 2]
00000000: 5428 62bd 74d9 8d3d f179 3dbd 0e96 5a3d
00000010: e443 883b fe92 bb3d 5a97 a63c cc88 4ebd
00000020: d552 b4b9 8d59 9abd d25d dcbd 1f9a f6bc
00000030: 9b90 c3bc cad7 843d 21f7 48bd 877e 7f3d
00000040: fdbc 703c 49da 2bbd ef26 00bd 49de f5bc
00000050: d19d 91bc 6c51 7dbd 0888 b9bb f1b8 8ebd
00000060: a5f4 3bbc 41e1 9d3d 000f b4bd bb4f 7b3c
00000070: aaca 053d c761 06bd ed19 2cbd 74ed 92bd
00000080: c433 5f3d 2a62 a03d e54c 9d3d 2247 c33d
00000090: bc23 193d 3afa 723d 22b4 05bd 3e23 be3d
000000a0: afb0 08bd 5833 6fbd 480e 91bd 2088 483d
000000b0: d1b1 8e3d 5187 37bd 2819 5bbc c03b 743c
000000c0: 5008 763c 5e18 933d 23ab 2abc 4297 dabb
000000d0: fe16 d83b 93ea 193d 74f4 cd3d 0b6e 29bd
000000e0: e325 023d c846 08bd af08 f6bc 9aa2 16bd
000000f0: 0a25 043d 0b5f 45bb 579f d3bd a0d5 afbd
00000100: bae4 cbbc 2cc2 a73d c725 863d 8eab 143d
00000110: 13a0 4bbd bcbd 843d 8a14 cf3d f8d6 c03b
00000120: 84b5 803d b52e b9bb 4873 48bc 8e65 f0bb
00000130: 4f93 93bd 1eac 31bd 6c81 4c3d afbd c7bb
00000140: 599c 7b3c 54f6 2c3d 881f 9d3d 0ac3 f0bc
00000150: 48fe 583c 1a27 4cbd cfc9 bf3d 37f5 3b3d
00000160: 586a 84bd 47fc 173d ecfb 17bd e62d 923d
00000170: 3c98 3c3d b561 403d 6810 6dbd 8317 553d
00000180: 19cc 37bd c734 0abd 2cec 793d 64b0 7dbb
00000190: 8787 083d 0ebd 383d 4713 c1bb 4796 37bd
000001a0: 52e1 40bd cc9a 1d3d b441 7dbd 54a0 e93b
000001b0: 6fe1 73bc c7fb 02bd 3df2 033d f21a 00bd
000001c0: 1172 d0bc 06eb b6bc 9be7 ebbc c8d1 143b
000001d0: f408 57bd bb23 0b3d f326 703c 3342 98bd
000001e0: 681d 9a3d de84 243d d905 803d f35a ce3d
000001f0: 3179 5c3d 864c 80bd 61c0 953b 590b 92bd
00000200: 4dcf 7e3d ab72 0fbd bb97 d63d 0b27 f03c
00000210: f9e1 c3bc bff2 0f3c b6bc 04bc cf0e 05bd
00000220: 6df1 6fbd e273 90bd 786e 043d 8700 a2bc
00000230: d4d8 06bc 1a97 4a3d d54c 2a3d 3cd3 c0bb
00000240: 52db cc3c 3b3f 423d 164c 5e3d b5b5 0cbc
00000250: 1664 86b9 2a99 9abd 3e3a 19bd 94f2 c63c
00000260: bbed 02bd 7bab 51bd 6a19 a3bc e133 debc
00000270: 080b aabd fb12 2bbd 6edf a4bd 4aa9 d3bd
00000280: 9701 31bc 794d 2d3d 754b cd3d 63cf 4b3d
00000290: d520 3f3d 2461 9c3d 9e1c 29bd 9360 7fbd
000002a0: 1f6b 913c 6cae 41bd cdad ddbd 47d0 88bc
000002b0: f9c2 993d 647d fc3c 68a3 5d3d 3ceb d7bc
000002c0: e0a1 26bd 1346 8a3c 6a43 893d b6b2 c83d
000002d0: 2cb8 113d 93e0 183d c063 91bb 7076 ba3d
000002e0: 18cd 27bd c93f d0bd 6f11 56bd 4206 4abc
000002f0: 4245 42bd caea 8abc 9cc9 3c3d 8322 b5bc
00000300: f1e5 beba 8767 d33d 8347 953d 04e3 89bd
00000310: 3241 9f3d 764d b93c 75d8 8abd 114c 993d
00000320: 21b8 933d 38b2 163d 9c87 d33d 3f34 dc3c
00000330: 215e 18bd 4986 68bd e9eb be3d cc5d 4f3d
00000340: 8fb4 84bd 78fa cd3c a5c0 803d 0106 d83c
00000350: 7692 143d f420 95bd c441 9e3c 4080 a43c
00000360: cee8 74bd 6287 af3d 7647 1ebd fdfd 073d
00000370: 043f dcbc 819b 60bd 2732 523d 97c1 65bd
00000380: a576 cbbd b109 013d 7e29 fbbc cf8a adbd
00000390: 29f9 bfbd 4bb6 073c 6175 8ebb 6257 773d
000003a0: 5b1b ddbc b6d4 21bc d559 703d 99e1 9dbd
000003b0: 10ce 243b f989 75bd 03fa 5d3d b366 b0bd
000003c0: e58c 5f3d 964f c03d 56af 543d 873b 193c
000003d0: 468e 3d3d 5dbd c63b c07b acbc 11ff c0bc
000003e0: d909 543b f410 8f3d d28c ca3b 1d55 cd3d
000003f0: 6528 0bbd 5a54 343d 979f 9ebd b8f4 5cbc
-0.05521424 0.069262415 -0.04625887 0.05336576 0.004158484 0.09158896 0.020335842 -0.05042343
-0.0003439399 -0.07536612 -0.10760082 -0.030102788 -0.023872664 0.06486471 -0.049063805 0.062376525
0.014693496 -0.04195622 -0.03128713 -0.03001322 -0.017775448 -0.061845228 -0.005661968 -0.069688685
-0.011471902 0.077089794 -0.087919235 0.015338833 0.03266398 -0.03280809 -0.042016912 -0.07174197
0.054492727 0.07831223 0.07680682 0.09535052 0.037387595 0.059320666 -0.03264249 0.09284066
-0.033371624 -0.058398575 -0.07082802 0.048957944 0.069675095 -0.044806782 -0.013372697 0.014906824
0.01501663 0.07182382 -0.010416779 -0.0066708634 0.0065945378 0.037577223 0.10056391 -0.04136471
0.031774413 -0.033270627 -0.030033438 -0.036776163 0.032261886 -0.0030116464 -0.10333126 -0.085856676
-0.024889339 0.08191332 0.06550174 0.03629642 -0.049713206 0.064815015 0.101113394 0.0058850013
0.06284621 -0.00565132 -0.012234516 -0.007336325 -0.07205831 -0.043377034 0.049928114 -0.00609561
0.0153571 0.042227104 0.0767203 -0.029389877 0.013244219 -0.049841978 0.09364664 0.045888152
-0.06465596 0.037105825 -0.037105486 0.07137661 0.04604362 0.04696818 -0.057876974 0.052024376
-0.044872377 -0.03374174 0.061016247 -0.0038709873 0.033332374 0.04510217 -0.0058921906 -0.04482105
-0.047089882 0.038477704 -0.061830238 0.0071297083 -0.0148852905 -0.031978395 0.03221344 -0.031275697
-0.025445016 -0.022328865 -0.028796962 0.0022708047 -0.052498773 0.033969622 0.014657724 -0.074345015
0.0752514 0.040165775 0.06251115 0.10075941 0.053826515 -0.06264596 0.0045700525 -0.07131071
0.062209416 -0.035021465 0.10478159 0.029315492 -0.023911463 0.0087859025 -0.008101633 -0.032484826
-0.05857985 -0.07053353 0.032331914 -0.019775642 -0.008230407 0.049460508 0.04157718 -0.005884556
0.025006924 0.047423583 0.05427178 -0.008588244 -0.00025633042 -0.07548745 -0.03740906 0.024285592
-0.031965 -0.051188927 -0.01990958 -0.027124347 -0.08302885 -0.041766148 -0.08050428 -0.10335024
-0.010803602 0.04231021 0.10024158 0.049758326 0.04666217 0.076357156 -0.041287057 -0.06234796
0.017751275 -0.047285482 -0.108241655 -0.016700877 0.07507891 0.03082151 0.054110914 -0.026357286
-0.04068172 0.016879117 0.06702311 0.097997114 0.03557603 0.037323546 -0.00443694 0.091046214
-0.040967077 -0.10168416 -0.05226272 -0.012330594 -0.04742933 -0.01695766 0.046090707 -0.022111183
-0.0014564377 0.10322481 0.072890304 -0.06732753 0.07776107 0.022619944 -0.06779567 0.07485212
0.07212854 0.036791056 0.103286 0.026880382 -0.037199143 -0.05676869 0.0932234 0.05062656
-0.06479751 0.025143847 0.06286744 0.02637005 0.03627249 -0.07281676 0.019318469 0.020080686
-0.059792332 0.08570744 -0.03864237 0.033201206 -0.026885517 -0.0548358 0.05131736 -0.056092825
-0.09934739 0.031503383 -0.030659433 -0.08473741 -0.093736954 0.008283208 -0.0043474887 0.06038607
-0.026990583 -0.009877374 0.05867942 -0.07709045 0.0025147237 -0.059946034 0.054193508 -0.08613338
0.054577727 0.0939018 0.051925026 0.009352571 0.04627826 0.0060650543 -0.021055102 -0.023559125
0.0032354502 0.069856554 0.006181338 0.10026 -0.03397407 0.044025756 -0.07745283 -0.01348608

up2.bias f4 [16]
00000000: b6f7 c6bc 5b56 5d3d e4b7 ffbb a8f9 fabc
00000010: e8fb 63bc 0144 adbc 62cd cfbc 83cf a9bc
00000020: f5b1 583d a6f6 9dbc 8ade a83d 9376 93bd
00000030: 7f7f 3a3c 9198 993d a3de 4bbc fd83 643d
-0.02428804 0.054037433 -0.007803904 -0.030636624 -0.01391504 -0.02115059 -0.025366489 -0.020728832
0.052904088 -0.01928265 0.08245571 -0.072003506 0.0113829365 0.07499803 -0.012443217 0.055789936

dec2.0.weight f4 [16, 32, 3, 3, 3]
00000000: da4b d9bc 1665 8abc 8b88 3abc 9d4c 16bd
00000010: f5ff 1abc 3611 7cbc 8434 393c fff2 2ebd
00000020: 1346 a7bc e314 d8bc 23d9 ecbc 543f 18bd
00000030: 833f 9bb9 62a8 a7bc 627d 483b fd3f 7f3c
00000040: 581b c3bb b154 10bb dcb9 683c bab2 fa3a
00000050: 3cd6 04bd 0c24 8c3c f428 80bc 6b68 abbb
00000060: 2d8f 9fbc d129 923b 1524 ba3c a82a 3d3d
00000070: 4f55 6c3d 2d05 903d 5113 1f3d 5152 423d
00000080: 7259 5d3d a559 5e3c b9f4 063d f582 f13c
00000090: dfa4 2e3d 5412 623d 88a6 4d3d 6930 f13b
000000a0: ebfe 2e3d 5ada cc3c ff75 513d 5b48 913c
000000b0: 9c27 44bb 8dcb 6c3a 8a8e 053d b072 f13c
000000c0: c649 d2bc e2c0 763c 02b1 853c e65b b9bb
000000d0: 5886 5a3d ebac 4cbb 7ce5 cd3c 801b 323b
000000e0: 4a5d 2d3d ad51 c13a 0e78 213d 98de b73c
000000f0: 5422 173d bc05 2c3c 6c75 a73c d92a 9b3c
00000100: 8a8e 9f3c cda1 db3c 1d42 383d 35ac c73c
00000110: f0d7 73bb be54 433d 4ce4 0f3c 866b 263d
00000120: 2d8b 223d d3bb 223d 08f1 053d 990d 243d
00000130: fe02 143d da0c 8fbb c075 1a3d ee8d a23b
00000140: 176c e43b 37c5 2f3d c22b 623d 807c cb3c
00000150: 6b0a 0d3d b95a 333d ba45 183d 5e60 2d3c
00000160: 8dbf 2b3d ff67 413c 7ac0 613d 0c4f 323d
00000170: b7b5 9d3b 3184 02bb 736e d93b ca9d b6ba
00000180: fa33 4e3d ede7 903c d43a 05bd cd05 213d
00000190: 801d 353d e617 e2bb 4e29 f93c 89ee 5c3c
000001a0: e7a3 e0bb dd6b 373d 3f2f 103d 99d7 63bc
000001b0: b731 8abb 7dad 873c b9e9 5bbb 288b 9fbc
000001c0: 9c2c 903c 8b1b 10bd 3f93 0dbd 1e38 e6bc
000001d0: 2b62 943c 1341 b0bc baee a8bc bf52 febc
000001e0: 9157 edbb 4291 e23b 1433 e8ba fa8a d8bc
000001f0: 2fcd d53b ad3d cd3c 8920 38bd 5e3a 30bd
00000200: a13d b7bb ca55 963c 9148 e2bc 161c 91bc
00000210: 386b 80b9 9511 04bc 8274 debc b441 663a
00000220: b345 fc3c c23c a03c a705 b4bb d804 7cbb
00000230: d888 ec3b 1314 903c 8474 133d 4df0 283d
00000240: 8c8f 493d d6c9 fbbb e7f6 a03c 1211 143d
00000250: 7f2c 3e3d ae4f 933c c103 403d 2d25 473d
00000260: 16e9 5e3b 7996 b93c 3178 023d 3629 9938
00000270: 67c3 403d 32e8 ed3c a144 52ba 3e02 653c
00000280: 6aec 103d 48da d43b 67f1 09bc ea4a c83c
00000290: 463c 543b 8b47 f4bb 7384 0fbd 09bd 14bc
000002a0: 22ee 113a 40f4 06bd 11dc 09bd 4c8e 1c3c
000002b0: c296 6b3c d5da a5bc cf85 2c3b a32d 07bd
000002c0: 0d18 8ebc 1fbd 13bd c4ec 4b3c f95a 9abc
000002d0: 75c7 1dbd 08f3 2abc 7aac 8bbc 75f0 bb3c
000002e0: e545 963c 899e 1cbd da3b 8d3c 3c1e a8bc
000002f0: 79dc 11bb c0d0 103d 29ee 013d a85b d8bb
00000300: df6a fa3c 364e c53c bd53 0e3d 34b9 863d
00000310: 694a 5c3d 8513 313d f670 ef3b 77c3 383d
00000320: b876 c43c 4f08 643d f16b 593d db08 003c
00000330: 7e03 023d 5c32 3d3c 02bc c73c 1f60 3f3c
00000340: 2277 323c bba3 383b ef0e 363c f3e7 463c
00000350: 1311 01bc b4e4 05bc 8a0b 3cbc 23c6 42bc
00000360: 3ee4 903b 8876 35bd e791 f4bc 2299 67bc
00000370: 4738 10bd 4ac2 02bd 2790 98bc 26de 0a3c
00000380: b602 0e39 d22e 15bc 1d27 ecbc 8294 9a3b
00000390: d48e 6dbb da34 1fbd 5b20 97bb c2d3 88bc
000003a0: d96d 6abb 2111 1c3b 1a29 18bd cb31 0bbd
000003b0: 0816 4ebc 775a 27bc 8e44 2fbd 1042 b4bb
000003c0: 69f0 ac3a 71ab 06bb df62 7ebc 754a 6bbc
000003d0: 875e 8f3b 4a1c 2b3b a345 693b c8ee 083c
000003e0: 8f53 3bbc 748c 5d3c b374 c9bc f45c a23c
000003f0: e060 b8bc 8438 0fbd 1355 1f3c b9b0 8bbc
-0.026525427 -0.016893905 -0.011385093 -0.036694158 -0.009460439 -0.015384963 0.011304025 -0.042712208
-0.020419156 -0.026377147 -0.028912133 -0.03716977 -0.00029611224 -0.020466033 0.0030592312 0.015579221
-0.0059541874 -0.0022023136 0.014204469 0.0019126751 -0.032430872 0.017107032 -0.015644528 -0.0052309535
-0.019477451 0.0044605513 0.022722283 0.04618326 0.057698544 0.07032237 0.03883678 0.047441784
0.05404038 0.013571178 0.03294823 0.02948139 0.042637702 0.05519326 0.050207645 0.0073605073
0.042723577 0.025006462 0.05113792 0.017734697 -0.0029930836 0.0009033017 0.03260664 0.029473633
-0.025669944 0.015060635 0.016319755 -0.005656707 0.053350776 -0.0031230997 0.02513384 0.0027177036
0.042325296 0.0014749073 0.039421134 0.022445008 0.036897972 0.010499414 0.020441733 0.01894133
0.019477148 0.026810551 0.044984926 0.024374107 -0.0037207566 0.04768824 0.008782458 0.040629886
0.03968351 0.039729904 0.03270057 0.04005203 0.036135666 -0.0043655457 0.03770995 0.004960767
0.006970893 0.042912688 0.055217512 0.02483964 0.034433763 0.04378769 0.03717587 0.010582058
0.041930724 0.01180458 0.0551152 0.043532416 0.004812922 -0.0019915218 0.006635481 -0.0013932523
0.050342537 0.017688716 -0.032526806 0.039312173 0.044217587 -0.0068998216 0.030415203 0.013484606
-0.006855476 0.0447806 0.035201307 -0.013906383 -0.0042173523 0.016562218 -0.0033556058 -0.019475535
0.017599396 -0.035182517 -0.034564253 -0.02810293 0.018113216 -0.021515405 -0.020621646 -0.031045316
-0.0072431047 0.0069142887 -0.0017715418 -0.026433457 0.006524704 0.025053823 -0.044952903 -0.043024413
-0.0055920635 0.018351454 -0.027622493 -0.017713588 -0.00024493947 -0.0080608325 -0.027155165 0.0008783594
0.030794954 0.019560222 -0.005493838 -0.0038455036 0.0072184615 0.017587697 0.03599979 0.041244794
0.049209163 -0.007683973 0.019648982 0.036149092 0.046429154 0.01798233 0.04687858 0.048619438
0.0034013442 0.022654759 0.031852905 7.303285e-05 0.04706135 0.029041383 -0.0008021091 0.013977585
0.035381712 0.0064957477 -0.008419371 0.024449784 0.0032384559 -0.0074548176 -0.035038423 -0.009078273
0.00055667956 -0.03294778 -0.033657137 0.009555411 0.014379205 -0.020245949 0.0026324873 -0.033002507
-0.017345453 -0.03606903 0.012446586 -0.018842207 -0.038520295 -0.01043392 -0.017050017 0.022941807
0.018343875 -0.03823713 0.017240454 -0.02052223 -0.0022256656 0.03535533 0.031721268 -0.006602723
0.030568538 0.024085145 0.034747828 0.065782934 0.0537819 0.043231506 0.007307167 0.045108285
0.02398239 0.055671986 0.053081457 0.007814611 0.03174161 0.011547651 0.024381641 0.011680632
0.010892661 0.0028173763 0.011111959 0.012140262 -0.007877606 -0.008172203 -0.0114773605 -0.01188806
0.00442174 -0.044302493 -0.029854728 -0.014135631 -0.03520992 -0.03192357 -0.018623425 0.008475816
0.00013543185 -0.009105401 -0.028827244 0.0047174105 -0.0036248462 -0.038868763 -0.0046120114 -0.016702536
-0.003577104 0.002381392 -0.037148573 -0.033983033 -0.012578495 -0.01021444 -0.04278999 -0.0055010393
0.0013194206 -0.0020548964 -0.015526502 -0.014361014 0.004375282 0.002610939 0.0035594485 0.008357711
-0.011433496 0.013522256 -0.02459178 0.019819714 -0.022507131 -0.034966007 0.009724873 -0.017052041

dec2.0.bias f4 [16]
00000000: 325a 48bb 1b1b 743c 72ef 31bc 94a1 043c
00000010: 85b4 baba 9f14 d2bb 2758 c43c f789 4dbc
00000020: 3128 8fbc f21b 933c fb99 98bc 1df8 903c
00000030: 4152 20bc c0ae 24bb fd33 4c3c 0b3e ec3c
-0.0030571339 0.014899041 -0.010860311 0.008095164 -0.0014244473 -0.0064111496 0.023967816 -0.0125451
-0.01747522 0.017957661 -0.018628111 0.017696435 -0.009785236 -0.0025128573 0.012463567 0.028838178

dec2.1.weight f4 [16]
00000000: 0e36 833f caa6 833f 2854 853f b549 843f
00000010: 5100 833f 18ad 7e3f a49a 823f 4136 843f
00000020: d54d 853f 3bd6 853f 1194 7e3f bc85 823f
00000030: aed3 813f 75aa 863f 879e 8a3f 8a8e 823f
1.0250871 1.0285275 1.0416307 1.0334994 1.0234472 0.9948287 1.0203443 1.0329057
1.0414377 1.0456003 0.9944468 1.0197062 1.0142725 1.0520769 1.0829629 1.019975

dec2.1.bias f4 [16]
00000000: f1fe 2cbd a5cc 98bd 1927 d3bd a904 90bd
00000010: cd35 6ebd 0425 04be 526b 4abc ddeb 913d
00000020: 209d 9e3d 3d47 71bd f136 06be 445a b0bd
00000030: 2c2e 8abb b39e 013e 874f 033d 455b d0bd
-0.04223532 -0.07460908 -0.10310192 -0.07032139 -0.058156777 -0.12904745 -0.012354689 0.071250655
0.07744813 -0.05890583 -0.13106896 -0.08610967 -0.00421693 0.12658195 0.032058265 -0.10173658

dec2.1.running_mean f4 [16]
00000000: 315d 74be a369 82be 448e dabd f0d9 9ebe
00000010: 402c 4cbe 6540 413e 33c5 a43e f7c9 54be
00000020: 4825 e9be 225c ccbe f6c6 55bd 5169 92be
00000030: a8c5 fd3e a972 043d 7d97 75be aea2 aabe
-0.23863675 -0.2547122 -0.10671666 -0.31025648 -0.19938755 0.18872221 0.321817 -0.20780168
-0.45536256 -0.39914042 -0.052191697 -0.28595975 0.49564862 0.03233591 -0.2398357 -0.3332724

dec2.1.running_var f4 [16]
00000000: 1eb2 b03e f739 893e 6366 6a3e adec aa3e
00000010: 5ff7 5b3e 8965 043e 57f7 b73e c11d d43e
00000020: 34ce 493f 9068 ac3e a510 253e 9dab 793e
00000030: ffd9 1f3f adf1 043f 27dd 713e 7c08 813e
0.34510893 0.26802036 0.2289062 0.33383694 0.21481083 0.12929358 0.35930893 0.4142895
0.78830266 0.33673525 0.1611963 0.24381872 0.6244201 0.5193127 0.23619519 0.25201786

up1.weight f4 [16, 8, 2, 2, 2]
00000000: 3bc6 04bd b490 90bc c2ef 74bc e3ce 8b3d
00000010: 6327 b1bd 68e0 73bd f7d1 8b3d 1057 72bc
00000020: 0a77 aebd f055 cfbd ebe4 333c 01de 8ebc
00000030: 6dc3 0b3d 4830 cdbd ab31 94bc 6783 72bc
00000040: 44f3 ca3d 7544 5b3c 8957 063d 1934 e2bd
00000050: 2a8f 9abd 95c3 b73d 3489 08be 9ddb 12bd
00000060: ad10 b3bc 44bb 9c3d f9d7 693d 0ab2 603d
00000070: d0f8 76bc ba8c b0bd df3f b93d 2e9c bebd
00000080: d08f d33d 2562 a03d 1232 7a3d b387 2c3d
00000090: 3492 073e ac57 7a3d 283d debc 5f55 b33d
000000a0: 86b1 e0bd 9601 b63d 8e11 b5bd 759e 58bd
000000b0: ad36 1d3b 066a 5a3d 83f9 353d 8dd7 4d3c
000000c0: c11a 33bd 3ab1 91bd 619e acbd a6eb 843c
000000d0: 12cb b73d 6f58 6cbd 6788 70bd fdf5 a7bd
000000e0: 0df8 9bbd c943 b4bd 0060 08be e491 08be
000000f0: 8213 8f3d 296d f03b d257 eebd 359d abbd
00000100: d26d 09be b709 e7bd 05b4 56bd 6040 39bc
00000110: 537f 79bd 3dcf 11bd 7d8b 973c 9d5f 843c
00000120: 5b05 953b fae5 39bd 7efb 8abd ccc5 7f3d
00000130: ae35 d1bd c2d3 85bd c300 823d 1f7a 8bbd
00000140: 8096 b13d 8b34 bebd be67 15bd 631d aebd
00000150: 4564 edbc 6d9e 8cbd 9c5c 013e a86c a93c
00000160: ae45 07be 4bbf 25bd c758 01be 2209 c7bd
00000170: dd8a 0ebe 4a85 373c 699b c1bd 76f9 7abd
00000180: 19b5 023e d8fa 0b3d 373f 38bb ded5 2cbb
00000190: 7a75 e63d 85d0 9abc af26 3ebd c07d 29bd
000001a0: 53b9 a8bd b6b6 17bd 2b47 853d e419 b2bd
000001b0: 9e1b 65bd 7db0 c2bd 7dcb 48bd d9f8 cebc
000001c0: d323 eabd 6673 06be 8cd7 40bd 3c77 d7bd
000001d0: f6cc dfbd 2454 373d 3cf6 13be 88e5 06be
000001e0: 3aa2 82bd c6d0 07be 6460 923c 13fe 02be
000001f0: 721a b7bd 5874 ca3c efbf e2bd 3b48 eebd
00000200: 0619 c8bc de0a 853d 138b f7bd 7834 183c
00000210: d3a7 d7bd 7e6d 203d ee13 b53c 0040 e5bc
00000220: c15d cabc 9ce9 37bd 1c9a dd3d d0cc 38bd
00000230: ae45 8ebd 94e6 fabd d388 3bbd 888e d9bd
00000240: 8b35 1a3e 8f50 9d3c f0f6 683d 2144 cdbc
00000250: d1ad 8b3d 10b8 fdbc c69b 2f3e b6c0 aebd
00000260: d521 1cbd 585e ae3d 7b21 c0bb b7d1 d2bd
00000270: 7d41 b5bd 2ed6 e7bd 5aac ddbd ee7b c53c
00000280: 24b4 13bb fc64 173c da6a 0a3e 6db7 8fbd
00000290: 2bd2 3e3d f0fa a43d 5f68 b3ba 9756 8b3d
000002a0: a11e a23a 0f0b 74bd e0b4 b1bc 81ac e8bd
000002b0: 0467 b5bd 65ff d6bc 349d f0bd 9be1 91bd
000002c0: 00cc 9e3d 414a 91bd cb59 983d fbf5 973a
000002d0: 3e2f 0ebe 07ac 503d 3954 03be 507b 833d
000002e0: a3a5 ea3b d601 203a 81ca d2bd 1e14 b7bc
000002f0: 257f c0bd 9493 05be f73c 03be 3cfd 08be
00000300: 542e fbbd 6d32 0fbe 48af 14bd f66c ca3d
00000310: 9e59 c8bd 1d59 01be 13ab c6bd 5746 0abe
00000320: 8830 febd 9f3e 6abd d91b 01be 0a86 62bd
00000330: 9c00 07bd 56bc f9bb d051 fabd 36ce 333d
00000340: eea8 b9bd c0b2 723c 32e4 b73d b24c 373a
00000350: 2de1 cfbc f1c2 ddbd 2279 21bc dc30 16bd
00000360: 57e2 36bd c8e2 ab3c 36dc ba3c 82dc 1f3d
00000370: 40f0 c4bc c4fa 98bd 3a85 eebd a8be eabd
00000380: 5df6 bd3d 7fc2 6f3d 524f 523c 10b0 9f3d
00000390: fe55 153e d79f f23d 6994 083e c939 b8bb
000003a0: b3ea e3bd 5c7d 9abd 7743 a23d cac5 acbd
000003b0: 9073 9bbd 5d20 0ebe a27f 67bd fa43 84bb
000003c0: e4f8 a1bd 2881 c93d 6456 0cbe 436e bebd
000003d0: 980b 4bbc 53e0 f2bd 8dc6 87bd 1f6c 94bc
000003e0: 22e9 61b8 e5d8 00bd f467 c93d c944 f4bd
000003f0: 2344 7e3d 38ab 07be b281 bfbd 80d5 803d
-0.03241561 -0.017647125 -0.014949741 0.0682657 -0.086500905 -0.059540182 0.06827157 -0.014791265
-0.08518799 -0.10123813 0.010979871 -0.017439844 0.03412192 -0.100189745 -0.01809009 -0.014801837
0.099096805 0.013383021 0.032798324 -0.11045093 -0.07546838 0.08972851 -0.13333589 -0.03585397
-0.021858538 0.076529056 0.057090733 0.05485729 -0.01507397 -0.086205915 0.090453856 -0.09307133
0.103301644 0.078312196 0.061082907 0.0421216 0.13239366 0.061118767 -0.027128771 0.087565176
-0.1097136 0.08887021 -0.08841239 -0.05288549 0.0023988888 0.053323768 0.044427406 0.012563598
-0.043726686 -0.071138814 -0.08428646 0.016225647 0.089742795 -0.057701524 -0.058723833 -0.082012154
-0.07615671 -0.088019915 -0.13317871 -0.13336903 0.06986143 0.0073372317 -0.11637844 -0.08379594
-0.134208 -0.1128115 -0.052417774 -0.011306852 -0.06091244 -0.03559803 0.01849913 0.016158873
0.0045477576 -0.04538534 -0.067862496 0.062444493 -0.10215317 -0.0653453 0.063478015 -0.06810402
0.08671284 -0.092873655 -0.03647589 -0.08501699 -0.028978476 -0.06866155 0.12632984 0.020681694
-0.13210174 -0.040465634 -0.12631522 -0.09718539 -0.1392016 0.011201212 -0.0945347 -0.06127306
0.12764396 0.03417477 -0.002811385 -0.0026372592 0.112528756 -0.018898258 -0.04642361 -0.04137969
-0.08238473 -0.03703948 0.06507715 -0.086963445 -0.05593454 -0.09506319 -0.049022187 -0.025265144
-0.11432614 -0.13129959 -0.04708056 -0.10520789 -0.10927765 0.044757977 -0.144494 -0.13173497
-0.063785985 -0.13263234 0.017868228 -0.12792234 -0.08940591 0.02471368 -0.11071765 -0.116348706
-0.024425995 0.064962134 -0.12087073 0.009289853 -0.10530057 0.03916692 0.02210423 -0.02798462
-0.024702908 -0.04490052 0.1082041 -0.0451172 -0.06946884 -0.122510105 -0.045784783 -0.10622889
0.15059488 0.019203452 0.056876123 -0.0250569 0.06820262 -0.030971557 0.17149267 -0.085328504
-0.038118202 0.085140884 -0.005863366 -0.10293906 -0.088503815 -0.113201484 -0.10823889 0.024106946
-0.0022537792 0.009240385 0.13517323 -0.070174076 0.04658715 0.08055675 -0.0013687721 0.06803625
0.0012368747 -0.05958086 -0.021692693 -0.113610275 -0.08857539 -0.026244828 -0.11748734 -0.07123109
0.07753754 -0.07094241 0.07439002 0.0011593694 -0.13885209 0.050945308 -0.12825097 0.06420004
0.0071608587 0.0006103789 -0.10292531 -0.02234846 -0.09399251 -0.13044578 -0.12816225 -0.13377851
-0.12264696 -0.1398408 -0.036299974 0.09884064 -0.09782718 -0.1263165 -0.097005986 -0.13503395
-0.124116 -0.057188626 -0.1260828 -0.05530361 -0.032959566 -0.0076213283 -0.12222636 0.04389783
-0.09065424 0.014813125 0.08979072 0.00069923245 -0.025375927 -0.10828198 -0.0098555405 -0.03666769
-0.04464945 0.020982161 0.022810083 0.039028652 -0.024040341 -0.07469705 -0.11646505 -0.11462146
0.09275506 0.058535095 0.012836294 0.07797253 0.14583585 0.11846893 0.13337864 -0.005622123
-0.1112875 -0.07543442 0.07923024 -0.08436163 -0.07590401 -0.13879533 -0.056518205 -0.0040364238
-0.079088 0.09839088 -0.1370483 -0.092983745 -0.012392901 -0.11859193 -0.066296674 -0.018117962
-5.3861302e-05 -0.031456847 0.098342806 -0.11927182 0.0620767 -0.13248909 -0.09350909 0.06290722

up1.bias f4 [8]
00000000: 3490 ee3c 3451 753e 6cff 5bbe 6b10 2fbd
00000010: 2220 833e 375d 3d3e 7bde 92bd 1650 933d
0.029121496 0.23956758 -0.21484154 -0.042740267 0.25610453 0.1849259 -0.07171341 0.071930096
